api/model.ckpt (torch_old, 118932 bytes, 14 tensors)

layer1.0.weight f4 [16, 1, 5, 5]
000000 88 53 79 bd 1c 37 7f 3d 66 7c d7 3c f8 16 9e bd
       -0.060870677 0.062308416 0.026304435 -0.07719225
000010 cc f4 5f 3c dd 20 f7 3d 95 6c 0b 3e eb cc 18 3e
       0.013669204 0.12066815 0.1361564 0.1492192
000020 96 6e 7b 3e 75 a0 74 3e 35 d9 49 3d d5 58 ca bd
       0.24553904 0.23889334 0.04927941 -0.098802246
000030 02 d9 62 3d 52 fe c7 bd b4 cc f2 3d e4 03 55 be
       0.055382736 -0.097653046 0.1185545 -0.20802265
000040 3d 32 5f bd c6 8b 37 3d e2 63 b9 3d ef 02 62 be
       -0.05449127 0.044811033 0.09052254 -0.22071432
000050 11 07 ca 3d 47 a2 41 be 61 aa 85 be c9 e8 5d be
       0.09864629 -0.1890956 -0.2610655 -0.21670832
000060 90 bb bd 3d 9c 00 9f 3d 57 0a 1a be 7a 38 a2 3d
       0.0926429 0.07763788 -0.15043007 0.07920928
000070 4b c7 15 3e c3 68 44 3e d2 7d aa bd 68 42 1d bd
       0.14626805 0.19180588 -0.083247796 -0.038393408
000080 7d 38 98 be a1 a1 1e be ec 47 db bd 85 de 3d 3e
       -0.29730597 -0.15491344 -0.107070774 0.18541916
000090 56 00 6a bd bf fc df b9 53 27 61 be f5 46 22 bd
       -0.057129227 -0.00042722185 -0.21987657 -0.03961845
0000a0 a2 9a ab 3d 8e 8c 29 3e be 35 f3 3d ee a7 01 3e
       0.08379103 0.16557524 0.11875485 0.12661716
0000b0 ca 24 d3 bd 67 24 bf bd 5d cd 3d 3d d7 c3 2b 3d
       -0.10309751 -0.09333115 0.046338428 0.041934814
0000c0 d5 dd af 3b 7c 54 f2 3d 93 eb 24 be 42 9e 43 3d
       0.0053670206 0.1183252 -0.1610549 0.04775835
0000d0 d7 56 53 3e 14 2e 31 3e a0 49 00 3e 70 09 18 3e
       0.20638596 0.17302734 0.12528086 0.1484735
0000e0 1e df 6d 3e 87 ba 9c bd 71 1e 48 be db 30 e6 bd
       0.23229644 -0.07652765 -0.19542862 -0.11239787
0000f0 5c e1 ec 3d 7f 78 09 be e4 a1 a9 be 06 7a 08 bd
       0.115664214 -0.13424872 -0.33131325 -0.033319496
000100 20 1d 4f 3e c5 66 9b 3c c5 82 44 bd da 57 ff 3c
       0.20225954 0.018969903 -0.047976274 0.03116982
000110 fc 7c 50 3e 0b 39 06 3e a6 6b b7 3d 85 83 14 3e
       0.20360178 0.13107698 0.08956079 0.14503296
000120 19 43 90 3d 28 e9 28 3e 67 83 2f be fd 45 e6 3d
       0.07044048 0.16495192 -0.1713997 0.11243818
000130 63 21 72 bb 5e 64 9e 3d 78 ce 2c 3d 85 e5 fc bd
       -0.003694617 0.07733987 0.04218909 -0.12348465
000140 7d 9f 92 3d b0 51 ba 3d f0 fe 93 3b 74 d9 3f 3d
       0.07159326 0.09097612 0.004516475 0.04683824
000150 e7 34 a6 3d 84 a7 1d 3e e5 df 4e 3d f8 8d 44 3d
       0.08115559 0.15395933 0.05050649 0.047986954
000160 62 c0 4d 3d ed 95 80 bc d4 fc 90 3d 16 1b 1b 3e
       0.0502323 -0.01569649 0.07079473 0.15147051
000170 71 ba 8a bd 2d cd 9f bd bb fa 9f be 1a 08 61 bc
       -0.06773842 -0.07802806 -0.3124598 -0.013734842
000180 36 d0 3d 3e b9 a1 38 bc 46 8d dc 3b 7a 03 d3 be
       0.18536457 -0.011269026 0.0067307083 -0.4121359
000190 b1 f5 73 3e 3c 6c 22 bd c5 d6 1d be 34 57 f8 3d
       0.23824193 -0.039654 -0.1541396 0.12126008
0001a0 ba 85 8b bd 4d 9f 71 bd 0c f9 83 3e 65 03 19 3e
       -0.06812616 -0.05898981 0.25775945 0.14942701
0001b0 a3 0a 16 bd 68 70 6f bc 64 c1 d4 bd 2f fc a1 bc
       -0.036631238 -0.014614202 -0.10388449 -0.01977357
0001c0 6f d0 c6 3d f2 a8 58 3d 83 fb af 3d d7 61 54 be
       0.09707724 0.052895494 0.08592894 -0.20740448
0001d0 db 46 b9 3d c7 d5 66 bd 2b a3 cf bd ef 25 31 3e
       0.09046718 -0.056356218 -0.10138544 0.17299627
0001e0 f0 d6 91 3d 70 9d 26 3e 37 4e 3a be 00 5c d1 bb
       0.07121074 0.16270995 -0.18193899 -0.006389141
0001f0 2e 87 c0 3d 64 bb 59 be 24 6a ac 3d d8 19 4c 3e
       0.094007835 -0.2126289 0.08418682 0.19931734
000200 f7 f5 ce 3d ff fa dd 3d 23 97 69 be cd 18 d4 3d
       0.10105508 0.10838889 -0.2281156 0.10356293
000210 5c 57 ad bd 5d 6e 47 3d 10 dc 07 be 77 f5 57 be
       -0.08463928 0.048689235 -0.13267541 -0.21089731
000220 e6 a8 29 be 12 7b 9f bd c0 1e 4e 3e 0e 50 e0 bd
       -0.16568336 -0.07787146 0.20128918 -0.10952769
000230 f7 d4 8d be 07 5e f2 3d be fd e6 3d 46 0c 84 bc
       -0.27701542 0.118343405 0.11278866 -0.016119134
000240 8d 2e a9 bc d6 28 80 be 5f 9f 51 bd 82 de b0 3d
       -0.02065208 -0.25031155 -0.05117738 0.0863619
000250 13 20 fd 3d 18 1b 8a 3d b9 23 06 be 20 c1 d5 3d
       0.12359633 0.06743449 -0.13099565 0.10437226
000260 1f da 60 3d c7 9e 69 3e 83 84 8d 3e 35 a8 38 3e
       0.054895516 0.22814475 0.2764016 0.18032916
000270 f6 30 fd 3d 90 32 a7 3d e2 7e ce 3d 00 99 b6 bd
       0.12362854 0.08163941 0.10082795 -0.08915901
000280 54 50 a2 3d e0 5c 29 3e 3d 31 0e be 03 6c e5 bd
       0.079254776 0.16539335 -0.1388597 -0.11202242
000290 f4 46 9e 3d 17 bc 01 be d4 ed 1c 3e d7 75 aa 3d
       0.07728377 -0.12669407 0.15325099 0.083232574
0002a0 25 a2 50 be d4 80 0a 3e 5e 76 1e be 91 a7 0b bd
       -0.20374353 0.13525707 -0.15474841 -0.03409535
0002b0 dd cd a8 bd 35 7d 4f 3e 01 f2 01 bd 6c 06 ff 3d
       -0.0824239 0.20262606 -0.031724934 0.12452397
0002c0 5a 43 d7 bc 56 3d 7f bd 72 c2 85 bd 2d ed cb bd
       -0.026277233 -0.062314354 -0.06531228 -0.09957347
0002d0 16 2a 3c 3c a3 46 bc 3d 78 83 d7 bd f5 25 2c bc
       0.011484643 0.091931604 -0.105231225 -0.010507097
0002e0 bd 37 8d 3d fc b7 6f bd a7 65 66 be 25 f4 2d be
       0.06895397 -0.05852507 -0.22499715 -0.16987665
0002f0 9c 2a 0c 3e ef 3a 49 3d f6 49 fa bd ed 63 2d be
       0.13688129 0.04912847 -0.12221138 -0.1693265
000300 fb 08 a5 3b 1a de 28 3e 02 bf 3f 3e c3 08 79 be
       0.005036471 0.16490975 0.18725207 -0.24319749
000310 5a a8 5b be 31 41 26 be b2 80 2f 3e d3 eb 12 3e
       -0.2145094 -0.16235806 0.17138937 0.14347772
000320 f5 97 47 be 9e 9d c4 3d 79 4a 93 bd 8a dd b3 3d
       -0.19491561 0.096003756 -0.07191939 0.087824896
000330 ac 12 55 bd b4 02 89 3d f4 3b 23 3e 5b 16 79 be
       -0.05201976 0.06689969 0.15940839 -0.24324934
000340 f2 45 47 be 9f e6 50 3e c3 67 30 be 63 32 1a 3e
       -0.19460276 0.20400475 -0.17227082 0.15058284
000350 c1 77 9c bd 12 f5 f2 bd b1 1f 98 3d ee 25 a7 3d
       -0.07640029 -0.1186315 0.0742792 0.081615314
000360 96 e6 8d 3d 7c cf a2 bd 46 98 5d be 76 0b 05 3e
       0.069287464 -0.07949731 -0.21640119 0.12992653
000370 9a 94 51 bd cd 66 12 3d e4 37 10 3e ba 00 1c be
       -0.051167108 0.03574257 0.1408382 -0.15234652
000380 76 fb ae bd b2 75 32 3e 80 06 23 3e 5d 52 ca 3d
       -0.08544056 0.1742771 0.15920448 0.09878991
000390 75 4a 11 be 4a da 5f be e9 ed 3f be c6 a8 0c be
       -0.1418856 -0.21860614 -0.187431 -0.13736257
0003a0 2a 6a e4 3b 94 3d a9 3c b0 55 93 3d 93 58 6b be
       0.0069706636 0.020659246 0.07194078 -0.22983007
0003b0 97 c2 42 bd 80 75 ee 3d 28 b2 80 3e 39 9b 0f 3e
       -0.047548857 0.11643505 0.25135922 0.14024056
0003c0 0e e4 a7 3d a8 d0 07 bd b8 ef 05 be 5e 08 b3 bd
       0.08197795 -0.033157974 -0.13079727 -0.0874183
0003d0 b5 4d 15 3c 31 34 4e 3d 3c c0 d3 3d 8a d4 7c bc
       0.009112765 0.050342742 0.103394 -0.015431533
0003e0 72 19 3a be 06 28 03 3d d0 94 0f bd 51 12 b3 bd
       -0.18173769 0.03202059 -0.035054028 -0.08743728
0003f0 47 1c 67 bd 1a 14 d8 3d 99 9b d6 3d 0d d7 85 be
       -0.05642345 0.10550709 0.10478897 -0.26140633

layer1.0.bias f4 [16]
000000 17 3e 03 3e b1 d4 a0 be 82 40 1c be ca 14 ad bd
       0.12816654 -0.3141227 -0.15258983 -0.08451231
000010 69 bc d1 3d 33 c1 86 3d de 53 47 bd c5 c9 1a 3e
       0.102410145 0.065798186 -0.048663966 0.15116031
000020 ef af 12 be 98 7b a3 3d 38 0a 2a bd cb bd fa 3d
       -0.14324926 0.07982558 -0.04151365 0.122432314
000030 e7 0a f6 bc bc f5 f9 3c da 38 90 bd 64 bd 98 bd
       -0.030034496 0.030512683 -0.070420936 -0.074579984

layer1.1.weight f4 [16]
000000 17 5f bc 3e 91 75 bc 3e 2a f4 8d 3e 82 1c 39 3f
       0.36791298 0.36808446 0.27725345 0.72309124
000010 42 94 bb 3e bb 49 47 3e a3 6b 6b 3e b4 a0 18 3f
       0.3663655 0.1946172 0.22990279 0.59620214
000020 93 0b 8d 3e b6 c3 9a 3e e8 43 04 3f 51 24 2a 3f
       0.27547893 0.3022744 0.51666117 0.66461664
000030 be 73 a6 3e dc 88 07 3f e7 2b 01 3f ba bc 2b 3f
       0.3251018 0.52943206 0.50457615 0.6708485

layer1.1.bias f4 [16]
000000 99 48 a9 bd 75 3d 1a be 34 72 94 be fe 31 63 be
       -0.082658 -0.15062506 -0.2899338 -0.2218704
000010 bd f8 72 be 66 56 6f 3b 82 1a 64 be 4a 7d 32 be
       -0.23727699 0.0036520003 -0.22275737 -0.17430606
000020 32 2b 27 bd e0 33 08 be 99 04 43 be 19 91 29 be
       -0.04081268 -0.13301039 -0.19044723 -0.16559257
000030 dc 58 1c be 42 ec 6e be f5 ad df bd d4 a0 68 be
       -0.15268272 -0.23332313 -0.109218515 -0.22717601

layer1.1.running_mean f4 [16]
000000 02 87 08 3e a0 5b 9f be 0e 33 2b bd ef 3b 60 bd
       0.13332751 -0.31124592 -0.041796736 -0.054744657
000010 8c 54 30 3e 88 0f 7e 3b 4f 3a 9f 3d 8c 30 95 3d
       0.17219752 0.0038766582 0.07774793 0.0728465
000020 28 64 44 be 1a 48 81 3d cb 53 4c bd 01 ce 20 3d
       -0.19178832 0.063125804 -0.0498846 0.03925896
000030 83 08 91 bd ff 94 e3 bb 84 fb 22 be 95 1e 2d be
       -0.070817016 -0.006945252 -0.15916258 -0.16906197

layer1.1.running_var f4 [16]
000000 0d 4d 3c 3d cc 30 9d 3c f8 a0 33 3d 95 f7 9d 3d
       0.04597192 0.019188307 0.043854684 0.07713238
000010 52 f0 a2 3c c1 81 81 3d 1a 84 87 3d 4a 70 c3 3d
       0.019889984 0.06323577 0.06616993 0.09542902
000020 61 e9 87 3c ca 48 6e 3c 63 77 fb 3c 3b 23 0c 3d
       0.016590776 0.014543721 0.030696576 0.034213286
000030 47 72 52 3c 39 e9 bc 3c c6 61 9f 3d 9d ff aa 3d
       0.012844629 0.023060428 0.07782321 0.083495356

layer2.0.weight f4 [32, 16, 5, 5]
000000 29 9d fd bc 31 2f 82 bd 38 14 4a 3d e7 25 f0 3d
       -0.030958729 -0.06356657 0.04933569 0.11725979
000010 28 87 b5 3d 1a fb f7 3c a9 61 83 bc 4e 60 b1 3c
       0.0886367 0.030271102 -0.016037779 0.021652367
000020 27 05 4a 3d 8e 07 1d 3e 26 b6 a5 3d c2 2d ea 3c
       0.04932132 0.15334913 0.08091383 0.028586272
000030 f0 25 d9 3b dc 20 45 bc 48 4e b3 3b 2b bc 20 3d
       0.006626837 -0.01203176 0.0054719783 0.03924195
000040 ae b1 57 bd f4 8f 20 bb 08 fd b7 ba c2 ca 22 bc
       -0.052659683 -0.0024499865 -0.0014037201 -0.009936037
000050 26 50 9d bd c8 d0 1b bb 56 e6 10 bd ca c9 bb bd
       -0.07681303 -0.0023775566 -0.035375915 -0.091693476
000060 c0 4d ea 3b bc 60 fa 3c 5e ae 55 bc f3 2f bb bd
       0.007150382 0.030563705 -0.013042061 -0.09140005
000070 76 93 1e 3d 92 ca 74 bc 2b d1 1b 3d 4a 89 96 3c
       0.03871485 -0.014940875 0.038041275 0.018376011
000080 06 b6 ee 3d e7 11 37 3e 94 03 cc 3d 08 c1 19 3d
       0.11655812 0.17877923 0.0996162 0.037537605
000090 9a b5 98 3d 92 e6 a2 3c e6 27 dd 3c 59 c6 34 3d
       0.07456513 0.019885335 0.026996564 0.04413447
0000a0 2a 95 e7 3c 7a c8 2a 3c 0d a2 3e bd 2d c6 13 3c
       0.02826937 0.010423774 -0.046541262 0.009019417
0000b0 f5 a3 66 bc 5a 28 9f bb e6 c2 d5 bd 8f 03 34 bd
       -0.014077176 -0.004857105 -0.104375646 -0.043948706
0000c0 fe f0 97 bd 4d 87 28 bd 08 fb ae 3d c3 a3 be 3c
       -0.074190125 -0.041144658 0.08543974 0.023271447
0000d0 3b ab 13 3d f3 f2 3c bc ab 16 71 3c 19 39 be 3c
       0.03605197 -0.011532533 0.014714877 0.023220586
0000e0 dc 43 38 3d df 30 65 bd c7 62 c0 3b 97 f6 72 bd
       0.04498659 -0.05595481 0.00587115 -0.059317198
0000f0 18 dd e9 3c d9 b6 9b bc 71 0f 6e bd 4b 2f 8f bd
       0.028547809 -0.019008087 -0.058120195 -0.06991442
000100 f9 33 68 3d ee e1 8d bd 90 6b a1 3c 27 28 09 bd
       0.05669019 -0.06927858 0.01970461 -0.033485558
000110 d1 3f 47 bd 35 e6 fc bc dc db 95 bd af 19 88 bc
       -0.048644844 -0.03087149 -0.073173255 -0.01661381
000120 36 56 82 bd ff 56 7b bd 38 81 cf 3a c9 d9 2c bd
       -0.063641 -0.061362263 0.0015831357 -0.042199884
000130 f8 e8 e2 bc 7f 28 09 3d 3c 9e 46 bd eb ae 48 bb
       -0.027698979 0.033485886 -0.048490748 -0.0030621837
000140 6d 76 e1 3c 18 cf 6e bd 45 8b d1 bb 42 f6 fd bc
       0.02752229 -0.05830297 -0.006394776 -0.031001214
000150 13 f5 8d 3d f2 06 e5 3c ab 63 45 3b b3 27 00 bd
       0.0693151 0.027957413 0.0030119221 -0.03128786
000160 e3 90 71 bd 6e ae a9 bb 5c 1d 62 bd c6 e4 09 bc
       -0.058976065 -0.0051782643 -0.05520378 -0.00841636
000170 9e b0 66 3d 07 fb 54 3d 21 1d b6 bc 61 a7 6f bc
       0.05632078 0.05199721 -0.022230687 -0.014627309
000180 53 db 07 bd b7 fb 76 3c 79 e8 fa bc 99 8f 78 bd
       -0.03316815 0.015074662 -0.03062843 -0.06068382
000190 7b e0 43 bd 8b bf 7f 3c fb 18 92 3d 9a f5 a7 3d
       -0.047821503 0.015609632 0.07133671 0.08201142
0001a0 5d d3 c4 3d eb bd 9b bb e8 cb 2b 3d 35 76 9c bc
       0.09610627 -0.0047528646 0.041942507 -0.019099334
0001b0 be 88 99 3b 4e 93 4e ba 9d ab 71 3d ac e7 aa 3c
       0.0046854904 -0.00078802265 0.059001554 0.020862423
0001c0 5e ab 35 bc 1d 89 8d bc 87 70 46 3d ef 93 92 3d
       -0.01108822 -0.017277295 0.04844716 0.07157122
0001d0 e8 15 86 3d 38 7f 6a 3c 49 ba 00 bd 5e 33 c8 b9
       0.06547147 0.014312558 -0.031427655 -0.00038185244
0001e0 67 d1 31 3d b7 87 30 3c ec 58 9b bc d3 84 78 bd
       0.043412592 0.010774544 -0.0189633 -0.060673546
0001f0 58 e7 b5 3a 00 80 e8 bc 18 b0 a7 bd 71 7c e2 bd
       0.001387815 -0.028381348 -0.08187884 -0.110588916
000200 8e b6 31 3d 3e a9 e8 bd b9 45 1d be b9 c6 08 be
       0.04338699 -0.113604054 -0.15358628 -0.13357057
000210 a2 be 02 be 2d 91 e9 bc 16 bc 93 3c e1 ad 2f be
       -0.12768033 -0.028511608 0.018034022 -0.17156173
000220 69 eb 8c bd 09 1d 63 bd 4a 30 d5 bd 5f f6 99 bd
       -0.068808384 -0.055447612 -0.10409601 -0.07517695
000230 cf 3f ea 3c 7a dc 0e 3e 3a ea a5 3d fc 65 d5 3d
       0.02859488 0.13951293 0.08101316 0.104198426
000240 34 98 0f 3c d2 a7 de 3d 0f 74 d2 3d 72 a0 c6 3d
       0.008764315 0.10871853 0.10276043 0.09698571
000250 dc 10 13 3d 5e 27 23 bd e5 2c 52 3d 65 95 90 3d
       0.03590475 -0.039832465 0.051312346 0.07059745
000260 d1 e9 e3 3c 3b cd a3 3c 5a 17 95 bc 4e 0f e8 bb
       0.027821453 0.019995322 -0.018199611 -0.0070819026
000270 fe f6 35 3d f4 9a c4 3c 96 8e 01 bc 6a 06 19 3d
       0.044425003 0.023999669 -0.00790753 0.037359633
000280 20 68 49 3d 19 0c f5 bc a5 f9 95 bc 64 8e 4b 3b
       0.049171567 -0.029912995 -0.018307516 0.0031060213
000290 cd b8 8b 3c 44 c3 bb bb 10 c7 41 bb a0 8a 0c bd
       0.017055893 -0.0057300646 -0.0029568113 -0.03431189
0002a0 b8 1e 1a bd e6 31 3f 3d bf d5 03 bd 01 8c 95 bc
       -0.037626952 0.046678446 -0.032186266 -0.018255236
0002b0 5e 68 9e bc 89 60 8f bc 0d c2 56 3c 50 75 5d bd
       -0.019336876 -0.017502086 0.013107789 -0.054066956
0002c0 7a 20 b8 bd 43 f9 48 3c ef ae 05 3d 81 a4 91 3b
       -0.089905694 0.01226646 0.032637533 0.004444659
0002d0 5e 79 38 bd 64 35 16 bd 96 38 4e bd 26 36 58 bd
       -0.04503762 -0.03667201 -0.050346933 -0.052786015
0002e0 39 91 ee 3c b7 b1 a7 3a 81 7a 8f 3a ea 0a 5d 3b
       0.029121982 0.0012794052 0.0010946543 0.003372843
0002f0 6a 06 a5 bd 19 dc c3 bd 09 d8 6a 3d 48 b3 01 3d
       -0.08057864 -0.09563465 0.057334933 0.031665117
000300 17 0a 99 3c f3 89 16 3d a3 f1 d0 bc 41 4d 9d 3d
       0.018681569 0.036752652 -0.025505846 0.07680751
000310 ac e1 84 3d 67 36 e8 bc 5d 88 19 3d 23 7f 23 3d
       0.06488356 -0.028346254 0.03748356 0.03991617
000320 81 49 a7 bd 1c bf 26 3d a2 9f 7b 3d c3 6c 1f 3c
       -0.08168317 0.0407096 0.061431535 0.009730521
000330 b2 fa 93 bc d0 64 8a bd b1 dc 63 bb 5c 26 62 bc
       -0.018063877 -0.0675751 -0.0034768994 -0.013803091
000340 8e 87 ee bd 1d 03 d7 3c cd 89 90 bc ad ea cd 3b
       -0.11646949 0.026246602 -0.017643834 0.006284079
000350 f1 56 b9 bc 8c b1 0b be 66 49 af bd 44 aa 39 bc
       -0.022624465 -0.13641948 -0.085589215 -0.011332098
000360 7b 32 c1 3d 01 a0 b8 3d 2a 08 25 3d a4 ec 05 3d
       0.094334565 0.09014893 0.04029099 0.03269638
000370 83 2f 9d 3d 07 54 a9 3d 6f d9 e1 3d 4f 3a f7 3d
       0.07675078 0.0826798 0.110278 0.12071668
000380 8e e7 66 3d 2e 5d ff bc 9d b1 30 bd 6d 3f a9 3d
       0.05637317 -0.031172361 -0.043138135 0.08264051
000390 3b fe 17 3d c5 3e 35 3c 4c 67 d4 bc ea 00 33 bd
       0.037107687 0.011062329 -0.025928162 -0.043702044
0003a0 2c f0 d7 bc 0d ca ed 3c f8 e0 60 3d db db 5b bd
       -0.02635964 0.02902701 0.054902047 -0.053676467
0003b0 f4 c4 e0 3d 2a 35 9f 3d c7 42 23 3c 08 1f 8e 3c
       0.10975066 0.07773812 0.009964651 0.017348781
0003c0 6e 3f a0 bd 3c 3c 9a 3d 31 50 11 3d f3 58 d2 3b
       -0.07824598 0.0753102 0.035476867 0.006419295
0003d0 d6 0d 6e 3d 82 a7 85 bb 6b d4 82 3d ee 78 22 3d
       0.058118664 -0.0040788064 0.06388172 0.03966611
0003e0 83 4c 23 3d 3d 1e f1 3c 0f 00 3b 3d 20 03 8d 3d
       0.03986789 0.029433364 0.045654353 0.06885362
0003f0 4e 4b 7c 3d 54 82 11 bd 60 62 96 bd 1f 8a c3 3c
       0.061595254 -0.03552468 -0.07342982 0.023869572

layer2.0.bias f4 [32]
000000 73 a4 bc 3c f2 6c f9 3b ef 2e 1b 3c 9e 15 c7 bc
       0.023027634 0.0076118642 0.009471639 -0.0243023
000010 65 f5 d7 bc b4 42 ac bc 05 71 bf 3c 27 fc 27 bd
       -0.02636213 -0.0210279 0.023369322 -0.041011956
000020 ab 5e 8b 3b 76 9b 74 bc ed c0 6a bc 76 fd 46 bc
       0.0042532287 -0.014929643 -0.014328224 -0.012145391
000030 3a a9 0e bd 2d 49 3b 3c 01 67 10 3d 2c 66 33 bd
       -0.034829356 0.011431021 0.035254482 -0.04379861
000040 5b 08 c1 bc 9e a3 e3 bc 7f 31 4c bd 3d 35 3e 3c
       -0.023563555 -0.02778798 -0.04985189 0.011609373
000050 33 f7 03 3d b2 a0 34 bc e1 52 79 bc 70 1b 07 bd
       0.03221817 -0.011024641 -0.015217514 -0.03298515
000060 12 df f2 3b c3 41 9d bc 1c af 31 3b 0d 3b e1 bc
       0.007411846 -0.019196397 0.002711243 -0.027493978
000070 cf 75 3f 3d e3 d1 70 3b 4d 32 43 3d 9a 06 3e 3d
       0.04674321 0.0036746196 0.047655392 0.046393014

layer2.1.weight f4 [32]
000000 db 21 96 3f 93 79 8a 3f 00 e7 57 3f 55 f9 5b 3f
       1.1729082 1.0818352 0.84336853 0.85927325
000010 7d e4 37 3f 68 04 7d 3e ed 96 4e 3f 5d 64 87 3f
       0.7183302 0.24708712 0.80699044 1.0577503
000020 ee 82 89 3f be 30 5c 3f aa 18 40 3f 14 0a c7 3e
       1.0743082 0.86011875 0.75037634 0.38874876
000030 fd 04 4c 3f e6 48 15 3f 7a c9 61 3f 0d ca 8e 3f
       0.7969511 0.5831436 0.88198054 1.1155411
000040 12 57 57 3f e0 85 8f 3f 26 26 9b 3f 05 93 47 3f
       0.84117234 1.121273 1.2121017 0.7795871
000050 ff d8 9a 3f 06 1c db 3e 3e e0 72 3f 98 35 c1 3e
       1.2097472 0.42794818 0.94873416 0.377362
000060 80 a7 11 3f a3 7a dc 3e b0 89 12 3f 99 a7 0e 3f
       0.5689621 0.43062314 0.57241344 0.55724484
000070 46 d0 88 3f 95 ef 4b 3f 60 d7 61 3f 7b a2 63 3f
       1.068856 0.7966245 0.8821926 0.889198

layer2.1.bias f4 [32]
000000 3a c7 a6 bd ae 69 47 be 40 19 7b bd 05 27 86 bd
       -0.08143468 -0.19473907 -0.061303377 -0.06550411
000010 81 5c 11 3d e9 7c 8b bd b5 93 a7 bd d1 52 19 bd
       0.03548861 -0.06810934 -0.0818247 -0.037432496
000020 75 ac 3e bd 81 b5 c8 bd 84 54 87 bd 82 8f 9e bd
       -0.046551187 -0.09800244 -0.06607917 -0.07742216
000030 bd f3 08 be 61 54 e6 bd 99 f7 60 bd 20 37 e7 3c
       -0.13374229 -0.11246563 -0.054923628 0.028224528
000040 7f 69 03 3b 4a fa 4b bd ab 16 16 bd 84 4a 89 bd
       0.0020051894 -0.04979924 -0.03664271 -0.06703666
000050 fb a7 1c bd 8f 84 4f bc b8 87 1b be 19 b9 55 bd
       -0.038246136 -0.012665882 -0.15188491 -0.052178476
000060 3a e1 6d bd 90 9b 93 bd cb e0 a7 bd ee 2b ed bd
       -0.05807612 -0.072074056 -0.08197173 -0.115806445
000070 93 1c 81 bd ec f6 40 bd 48 b6 9f bd 8f 3b 8e bd
       -0.06304278 -0.047110483 -0.07798439 -0.06944954

layer2.1.running_mean f4 [32]
000000 18 3b 16 3d b0 0e b0 bd 0b cb 00 3e c3 c4 08 be
       0.03667745 -0.085965514 0.12577455 -0.13356309
000010 49 80 05 3e ce ae 35 be 98 ed 45 bd 6c e9 01 3e
       0.13037218 -0.17742464 -0.04832229 0.126867
000020 21 50 6f bd 01 a6 f1 bd 5c ac 00 bc e9 9b 28 3e
       -0.058426026 -0.11799241 -0.007853594 0.16465725
000030 87 6d 5e be ed 5b 6e 3d ee b3 95 3d dc c6 3e 3d
       -0.21721469 0.058193136 0.073097095 0.046576366
000040 13 1c 76 3e fd 8c 69 3d eb bf be bd e2 1f f1 3a
       0.24034147 0.057019223 -0.09313949 0.0018396343
000050 6c b5 ea 3d 97 41 83 bd c5 bd 06 bd ab 66 c4 bd
       0.11460385 -0.06408995 -0.032895822 -0.09589895
000060 0c ce a3 39 7f 3d ba 3c 7c 8e 18 3c 1d 83 2b be
       0.000312433 0.022734402 0.009311315 -0.16749234
000070 a3 07 91 3d 5b 36 1a be 24 c4 a5 3d 31 b1 a5 bc
       0.07081535 -0.15059797 0.080940515 -0.020226093

layer2.1.running_var f4 [32]
000000 1c 0e 07 3e b7 01 3c 3e 73 c1 57 3e 52 f1 80 3e
       0.13188976 0.18360029 0.21069889 0.25184113
000010 0c 00 0a 3e 2b 80 41 3e 1a 92 0b 3e 17 de 70 3e
       0.1347658 0.18896548 0.13629952 0.2352222
000020 1b 79 40 3e 37 47 44 3e 3d 48 76 3e f0 7b 25 3e
       0.18796198 0.19167791 0.24050994 0.1616056
000030 a4 1f 7c 3e 38 82 82 3e 34 e6 e2 3d cd f0 2c 3e
       0.24621445 0.25489974 0.11079064 0.16888733
000040 55 a7 0b 3e 62 21 68 3e be 27 3a 3e e6 23 05 3e
       0.13638051 0.22668985 0.18179223 0.13001975
000050 e3 98 49 3e 44 86 5f 3e 81 c5 33 3e 85 8c 8a 3e
       0.19687228 0.21828562 0.1755581 0.27060333
000060 aa 64 50 3e 88 33 b3 3e da 85 16 3e 4f d6 3a 3e
       0.203509 0.35000253 0.14699498 0.18245815
000070 2d 47 54 3e a9 04 55 3e aa 9c 05 3e fa f7 78 3e
       0.20730276 0.20802559 0.13048044 0.24313346

fc.weight f4 [10, 1568]
000000 7f 2f a3 bc 99 82 3b bd fc a9 86 bd 0f 4a 2c bd
       -0.019920109 -0.045778845 -0.06575391 -0.042062815
000010 b6 fa 59 bd 30 58 2b bd 51 a6 10 3d 3a a4 1b 3d
       -0.053217612 -0.04183215 0.03531486 0.037998416
000020 d5 a3 45 3d 4a 59 5f 3b ce 52 ed 3a e5 cd 55 3d
       0.048251946 0.003408032 0.0018106343 0.05219831
000030 8f bf 81 3d a9 74 b7 3d 3d 81 ad 3b 69 21 2f bc
       0.06335365 0.08957798 0.0052949474 -0.010689118
000040 99 1a 16 3c 7c 9a 56 3d 30 06 3d 3d 07 92 76 3d
       0.009161615 0.05239342 0.04614848 0.060197856
000050 03 b7 9f 3d 17 36 2c bd 0d 28 98 bd 17 36 c2 3c
       0.077985786 -0.04204377 -0.07429514 0.023707433
000060 75 93 74 3d ad c0 99 bb 70 ec ba bd 61 49 d4 3c
       0.05971094 -0.004692158 -0.09127128 0.025913896
000070 ae c7 fb bd 8b 6b 02 be fa cb 19 bd 09 54 9e bb
       -0.12293945 -0.12736337 -0.037548043 -0.004831795
000080 d2 3c 90 bd a3 dc e5 bc 8e 06 2d bc 01 f6 f5 3c
       -0.070428506 -0.02805931 -0.010560645 0.03002453
000090 a6 71 d3 3c d9 af 3a bc 84 30 2a bd d3 63 cf bc
       0.025811028 -0.011394464 -0.041550174 -0.025316155
0000a0 1f a4 ac 3c f6 5c e3 3c bd d2 20 bc c3 00 23 3a
       0.021074353 0.027754288 -0.009815869 0.000621807
0000b0 f2 a7 f5 3b a2 1a e9 3c ef 31 39 bd 36 df a2 3c
       0.0074968273 0.028455082 -0.045213636 0.019881826
0000c0 02 8b 03 3d a8 92 98 3a 8a 08 00 bd b5 99 11 bd
       0.03211499 0.0011640387 -0.031258143 -0.035546977
0000d0 67 34 ac bd f0 1c 85 bd fd 6d 92 3a 49 49 4f bc
       -0.084084325 -0.0649966 0.0011171695 -0.01265175
0000e0 06 27 6a bc 39 a0 38 bd c1 f0 0e bc 5d 27 83 bc
       -0.0142915305 -0.045074675 -0.008724392 -0.01600998
0000f0 76 69 06 3d 02 fb 96 3c 45 3d e8 3b 3d e2 77 bd
       0.03281542 0.018430237 0.007087382 -0.060518492
000100 d2 f2 07 bd 81 9a 41 3c 0c 27 c2 3d 0f b6 3e bc
       -0.033190556 0.011816622 0.09480104 -0.011640086
000110 bf 27 f8 3c 4c 87 63 3d 57 fa 71 bc 0a b0 28 bd
       0.03029239 0.05554895 -0.014769158 -0.04118351
000120 84 ad 27 bd 6b d6 3a bd 39 e0 b4 3c 32 5d 93 bc
       -0.04093696 -0.04561464 0.022079574 -0.017988775
000130 94 f4 dd bc b4 55 12 3a 5a 1b 75 3c 7f 24 46 bd
       -0.027094163 0.0005582229 0.014960134 -0.04837465
000140 e7 37 b2 bd 90 bd a0 3c 65 0f 9b bd 83 d9 e8 bd
       -0.08702069 0.01962164 -0.07571296 -0.11369612
000150 af e4 52 3d 74 a4 aa 3c 02 e6 14 bd da 0c 61 3d
       0.05148762 0.02083037 -0.036352165 0.054943897
000160 4f 8c 5f bc e7 cc f0 bd 04 49 9e bd c7 41 19 bd
       -0.013644292 -0.11757832 -0.077287704 -0.037416246
000170 ec 68 03 bc cf 78 d4 bc a5 ab 5c 3d 71 d1 06 3d
       -0.008020621 -0.025936512 0.05387463 0.032914583
000180 95 7a ce bd 6d e9 df bc a6 2c e4 bc 8f 89 0e bd
       -0.100819744 -0.027332986 -0.027853321 -0.034799155
000190 8f f4 05 bd fd 45 a6 bc a5 d7 f9 bc 4a e0 72 bd
       -0.032703932 -0.020297045 -0.030498335 -0.05929593
0001a0 a3 fe 13 3d 51 07 9f 3c 42 3b 1e 3c f0 a4 2e bc
       0.036131512 0.019412668 0.009657683 -0.010659441
0001b0 a9 a0 f3 3b 0b 1d 94 bd 1c 1b 90 bc e2 c6 96 3c
       0.0074349237 -0.07232102 -0.017591052 0.018405382
0001c0 f0 d4 71 3d 32 18 9d 3d 92 84 17 3d 49 ad 4f bd
       0.059040964 0.076706305 0.036991663 -0.050702367
0001d0 49 dd 89 3c 76 b7 81 bc a4 29 17 3d 43 bb b6 3d
       0.01682915 -0.015834551 0.036904946 0.08922436
0001e0 0d 63 b8 3d cd eb e3 bc fe 8e b0 3d 5a 68 da 3c
       0.090032674 -0.0278224 0.086210236 0.026661087
0001f0 54 0c 07 bd 32 75 51 3a 6e b7 1f 3d 33 b5 c8 3c
       -0.03297074 0.0007990181 0.03899329 0.024500465
000200 8f d1 1e bc 6c bf a3 3d 65 0d 77 3d b4 8e 9d 3c
       -0.009693517 0.07995495 0.06031551 0.019233085
000210 fb 38 01 3d ec 57 25 3c 0e 04 0e be 05 66 0d be
       0.03154848 0.010091763 -0.13868734 -0.13808449
000220 3a 1a 05 3d 9b 53 1a 3d 4b 37 87 3c 96 f5 d5 3c
       0.032495715 0.03767739 0.016505858 0.026118081
000230 96 fa 49 bc 66 d7 37 be c0 0b 33 be b7 1f 97 3c
       -0.012327811 -0.17953262 -0.17484951 0.01844774
000240 c4 4a 1a 3d 10 f2 04 bd 7f 6d 22 bc 34 aa 77 bd
       0.03766896 -0.03245741 -0.009913801 -0.060465053
000250 66 d6 77 bd 07 58 1c bd 98 61 f5 bb 3c 3b 11 3d
       -0.0605072 -0.038169887 -0.0074884407 0.03545688
000260 9c 36 1a bb a8 a3 33 bd 56 63 37 3d a8 53 cd 3c
       -0.0023531085 -0.043857247 0.04477247 0.025064304
000270 c8 b7 32 3d d4 6a c5 3c f5 cc 25 3d f6 ed 88 3c
       0.0436323 0.024098791 0.040478665 0.016715031
000280 6b 77 83 3d 03 47 49 bd 4d 50 d5 bd 2e bb 8e bd
       0.064192615 -0.049139988 -0.10415707 -0.069692954
000290 40 87 01 3c 10 68 4a 3d 0d 8d 81 bc 6b 10 a2 3c
       0.007905781 0.049415648 -0.015814329 0.01978322
0002a0 89 79 95 3b a2 86 ae bc 34 be ab bd f7 94 13 be
       0.0045616073 -0.021304432 -0.08385888 -0.14412294
0002b0 49 27 3c be d0 82 d5 bc ca 72 fa 3c 66 4c 87 3c
       -0.18374361 -0.026063353 0.030572314 0.016515922
0002c0 3a d3 89 bc 25 a7 09 3d 97 f8 ee 3c 58 5c 0b 3d
       -0.016824353 0.033606667 0.029171271 0.034023613
0002d0 a2 a2 18 be 58 d1 a9 bd 96 ce ef bb 3d 93 fd bc
       -0.1490579 -0.08291882 -0.007318328 -0.030953998
0002e0 49 27 1b bd 1c ec 56 3d 9c d4 4f 3d 5c a3 14 3c
       -0.037879262 0.052471265 0.05073987 0.009072151
0002f0 95 c5 88 bd b3 cd d3 3a 7a 2d 6b 3d dd e0 53 3c
       -0.06678311 0.0016159326 0.057416417 0.01293203
000300 4e 37 33 bd 7a d9 92 bb 71 4d 7d bd 62 9f 38 bd
       -0.043753915 -0.0044814916 -0.061841432 -0.045073874
000310 5c ce af 3c 67 03 78 3d 23 cb 63 3b e8 de e9 3b
       0.021460705 0.06055012 0.003475853 0.007137168
000320 7a 48 a0 3c 35 c8 22 3d 71 e7 2a 3d 48 e7 44 bd
       0.01956581 0.039741714 0.041724626 -0.04807213
000330 f4 43 4c bd a6 a4 85 bd db dd 45 bd f3 9a b0 3b
       -0.049869493 -0.06525545 -0.04830728 0.005389565
000340 94 3f a1 bb 60 4b 1b 3c bd ef b4 bd 1e cd 2f be
       -0.004920909 0.00947842 -0.08834789 -0.1716809
000350 3e 66 f6 bd c4 3f b3 bd 03 09 5c bc 2a 6f 82 3b
       -0.1203122 -0.08752397 -0.013429883 0.003980537
000360 51 1c 1a 3d a4 1b e3 bd db 89 2e be f9 d1 fd bd
       0.03762466 -0.110892564 -0.17044775 -0.12393565
000370 6c 5a 81 bc b8 16 63 3d db 3f d2 bc 45 1b 37 bb
       -0.015790187 0.05544159 -0.025665214 -0.0027939838
000380 51 66 1c bb a5 5c 26 bd 52 c1 1d 3d 38 5c 86 3c
       -0.0023864696 -0.040615696 0.038514443 0.016401395
000390 d1 d1 4e 3d 65 b7 f2 ba 6f 96 7f 3c 73 87 f2 bc
       0.050493065 -0.0018517791 0.015599831 -0.029605603
0003a0 1c 46 bb bc 72 7e 41 3d 78 61 b9 bc a0 22 14 be
       -0.02286058 0.04723973 -0.022629485 -0.14466333
0003b0 a2 14 95 3b 3d a3 a0 3c 42 78 49 bc 9e 07 41 bd
       0.0045495788 0.019609088 -0.012296738 -0.047126405
0003c0 70 4b e0 3c 0a 8f c7 bd 0c 37 a4 bd 9d 00 7c bd
       0.027379721 -0.097440794 -0.08018312 -0.061524022
0003d0 09 49 6f bc 38 13 b5 bd 8d f4 92 bc 7a 5d f3 bc
       -0.014604815 -0.08841556 -0.017938877 -0.029707659
0003e0 a5 03 86 bc d9 f8 e2 3c 19 c4 a6 bd 7a 4e 40 bd
       -0.01635916 0.02770655 -0.081428714 -0.04694984
0003f0 0f d0 32 3b 4d b8 c1 bc a1 8b b1 3b 7c 93 14 3c
       0.0027284657 -0.023647452 0.0054182564 0.009068366

fc.bias f4 [10]
000000 c3 a2 e6 3b 53 42 a8 3d 11 1b d3 3c 80 36 86 3c
       0.0070384457 0.08215775 0.025769742 0.01638341
000010 64 0e 24 bd 46 f4 3d bc e6 e0 18 3c 60 01 ad 3b
       -0.040052786 -0.011593884 0.009330964 0.005279705
000020 00 17 76 bd ab 1d b2 3b
       -0.06008053 0.0054356656
